…
2023-09-02 02:39:18.242247: output folder: /afs/crc.nd.edu/user/y/ypeng4/data/trained_models/Dataset123_Polyp/PolypTrainer__nnUNetPlans__2d/458806_my_unet_FusedMBConv_16/fold_0

#######################################################################
Please cite the following paper when using nnU-Net:
Isensee, F., Jaeger, P. F., Kohl, S. A., Petersen, J., & Maier-Hein, K. H. (2021). nnU-Net: a self-configuring method for deep learning-based biomedical image segmentation. Nature methods, 18(2), 203-211.
#######################################################################

model: Res2Network(
  (backbone): Res2Net(
    (conv1): Sequential(
      (0): Conv2d(3, 32, kernel_size=(3, 3), stride=(2, 2), padding=(1, 1), bias=False)
      (1): BatchNorm2d(32, eps=1e-05, momentum=0.1, affine=True, track_running_stats=True)
      (2): ReLU(inplace=True)
      (3): Conv2d(32, 32, kernel_size=(3, 3), stride=(1, 1), padding=(1, 1), bias=False)
      (4): BatchNorm2d(32, eps=1e-05, momentum=0.1, affine=True, track_running_stats=True)
      (5): ReLU(inplace=True)
      (6): Conv2d(32, 64, kernel_size=(3, 3), stride=(1, 1), padding=(1, 1), bias=False)
    )
    (bn1): BatchNorm2d(64, eps=1e-05, momentum=0.1, affine=True, track_running_stats=True)
    (relu): ReLU()
    (maxpool): MaxPool2d(kernel_size=3, stride=2, padding=1, dilation=1, ceil_mode=False)
    (layer1): Sequential(
      (0): Bottle2neck(
        (conv1): Conv2d(64, 104, kernel_size=(1, 1), stride=(1, 1), bias=False)
        (bn1): BatchNorm2d(104, eps=1e-05, momentum=0.1, affine=True, track_running_stats=True)
        (pool): AvgPool2d(kernel_size=3, stride=1, padding=1)
        (convs): ModuleList(
          (0-2): 3 x Conv2d(26, 26, kernel_size=(3, 3), stride=(1, 1), padding=(1, 1), bias=False)
        )
        (bns): ModuleList(
          (0-2): 3 x BatchNorm2d(26, eps=1e-05, momentum=0.1, affine=True, track_running_stats=True)
        )
        (conv3): Conv2d(104, 256, kernel_size=(1, 1), stride=(1, 1), bias=False)
        (bn3): BatchNorm2d(256, eps=1e-05, momentum=0.1, affine=True, track_running_stats=True)
        (relu): ReLU(inplace=True)
        (downsample): Sequential(
          (0): AvgPool2d(kernel_size=1, stride=1, padding=0)
          (1): Conv2d(64, 256, kernel_size=(1, 1), stride=(1, 1), bias=False)
          (2): BatchNorm2d(256, eps=1e-05, momentum=0.1, affine=True, track_running_stats=True)
        )
      )
      (1): Bottle2neck(
        (conv1): Conv2d(256, 104, kernel_size=(1, 1), stride=(1, 1), bias=False)
        (bn1): BatchNorm2d(104, eps=1e-05, momentum=0.1, affine=True, track_running_stats=True)
        (convs): ModuleList(
          (0-2): 3 x Conv2d(26, 26, kernel_size=(3, 3), stride=(1, 1), padding=(1, 1), bias=False)
        )
        (bns): ModuleList(
          (0-2): 3 x BatchNorm2d(26, eps=1e-05, momentum=0.1, affine=True, track_running_stats=True)
        )
        (conv3): Conv2d(104, 256, kernel_size=(1, 1), stride=(1, 1), bias=False)
        (bn3): BatchNorm2d(256, eps=1e-05, momentum=0.1, affine=True, track_running_stats=True)
        (relu): ReLU(inplace=True)
      )
      (2): Bottle2neck(
        (conv1): Conv2d(256, 104, kernel_size=(1, 1), stride=(1, 1), bias=False)
        (bn1): BatchNorm2d(104, eps=1e-05, momentum=0.1, affine=True, track_running_stats=True)
        (convs): ModuleList(
          (0-2): 3 x Conv2d(26, 26, kernel_size=(3, 3), stride=(1, 1), padding=(1, 1), bias=False)
        )
        (bns): ModuleList(
          (0-2): 3 x BatchNorm2d(26, eps=1e-05, momentum=0.1, affine=True, track_running_stats=True)
        )
        (conv3): Conv2d(104, 256, kernel_size=(1, 1), stride=(1, 1), bias=False)
        (bn3): BatchNorm2d(256, eps=1e-05, momentum=0.1, affine=True, track_running_stats=True)
        (relu): ReLU(inplace=True)
      )
    )
    (layer2): Sequential(
      (0): Bottle2neck(
        (conv1): Conv2d(256, 208, kernel_size=(1, 1), stride=(1, 1), bias=False)
        (bn1): BatchNorm2d(208, eps=1e-05, momentum=0.1, affine=True, track_running_stats=True)
        (pool): AvgPool2d(kernel_size=3, stride=2, padding=1)
        (convs): ModuleList(
          (0-2): 3 x Conv2d(52, 52, kernel_size=(3, 3), stride=(2, 2), padding=(1, 1), bias=False)
        )
        (bns): ModuleList(
          (0-2): 3 x BatchNorm2d(52, eps=1e-05, momentum=0.1, affine=True, track_running_stats=True)
        )
        (conv3): Conv2d(208, 512, kernel_size=(1, 1), stride=(1, 1), bias=False)
        (bn3): BatchNorm2d(512, eps=1e-05, momentum=0.1, affine=True, track_running_stats=True)
        (relu): ReLU(inplace=True)
        (downsample): Sequential(
          (0): AvgPool2d(kernel_size=2, stride=2, padding=0)
          (1): Conv2d(256, 512, kernel_size=(1, 1), stride=(1, 1), bias=False)
          (2): BatchNorm2d(512, eps=1e-05, momentum=0.1, affine=True, track_running_stats=True)
        )
      )
      (1): Bottle2neck(
        (conv1): Conv2d(512, 208, kernel_size=(1, 1), stride=(1, 1), bias=False)
        (bn1): BatchNorm2d(208, eps=1e-05, momentum=0.1, affine=True, track_running_stats=True)
        (convs): ModuleList(
          (0-2): 3 x Conv2d(52, 52, kernel_size=(3, 3), stride=(1, 1), padding=(1, 1), bias=False)
        )
        (bns): ModuleList(
          (0-2): 3 x BatchNorm2d(52, eps=1e-05, momentum=0.1, affine=True, track_running_stats=True)
        )
        (conv3): Conv2d(208, 512, kernel_size=(1, 1), stride=(1, 1), bias=False)
        (bn3): BatchNorm2d(512, eps=1e-05, momentum=0.1, affine=True, track_running_stats=True)
        (relu): ReLU(inplace=True)
      )
      (2): Bottle2neck(
        (conv1): Conv2d(512, 208, kernel_size=(1, 1), stride=(1, 1), bias=False)
        (bn1): BatchNorm2d(208, eps=1e-05, momentum=0.1, affine=True, track_running_stats=True)
        (convs): ModuleList(
          (0-2): 3 x Conv2d(52, 52, kernel_size=(3, 3), stride=(1, 1), padding=(1, 1), bias=False)
        )
        (bns): ModuleList(
          (0-2): 3 x BatchNorm2d(52, eps=1e-05, momentum=0.1, affine=True, track_running_stats=True)
        )
        (conv3): Conv2d(208, 512, kernel_size=(1, 1), stride=(1, 1), bias=False)
        (bn3): BatchNorm2d(512, eps=1e-05, momentum=0.1, affine=True, track_running_stats=True)
        (relu): ReLU(inplace=True)
      )
      (3): Bottle2neck(
        (conv1): Conv2d(512, 208, kernel_size=(1, 1), stride=(1, 1), bias=False)
        (bn1): BatchNorm2d(208, eps=1e-05, momentum=0.1, affine=True, track_running_stats=True)
        (convs): ModuleList(
          (0-2): 3 x Conv2d(52, 52, kernel_size=(3, 3), stride=(1, 1), padding=(1, 1), bias=False)
        )
        (bns): ModuleList(
          (0-2): 3 x BatchNorm2d(52, eps=1e-05, momentum=0.1, affine=True, track_running_stats=True)
        )
        (conv3): Conv2d(208, 512, kernel_size=(1, 1), stride=(1, 1), bias=False)
        (bn3): BatchNorm2d(512, eps=1e-05, momentum=0.1, affine=True, track_running_stats=True)
        (relu): ReLU(inplace=True)
      )
    )
    (layer3): Sequential(
      (0): Bottle2neck(
        (conv1): Conv2d(512, 416, kernel_size=(1, 1), stride=(1, 1), bias=False)
        (bn1): BatchNorm2d(416, eps=1e-05, momentum=0.1, affine=True, track_running_stats=True)
        (pool): AvgPool2d(kernel_size=3, stride=2, padding=1)
        (convs): ModuleList(
          (0-2): 3 x Conv2d(104, 104, kernel_size=(3, 3), stride=(2, 2), padding=(1, 1), bias=False)
        )
        (bns): ModuleList(
          (0-2): 3 x BatchNorm2d(104, eps=1e-05, momentum=0.1, affine=True, track_running_stats=True)
        )
        (conv3): Conv2d(416, 1024, kernel_size=(1, 1), stride=(1, 1), bias=False)
        (bn3): BatchNorm2d(1024, eps=1e-05, momentum=0.1, affine=True, track_running_stats=True)
        (relu): ReLU(inplace=True)
        (downsample): Sequential(
          (0): AvgPool2d(kernel_size=2, stride=2, padding=0)
          (1): Conv2d(512, 1024, kernel_size=(1, 1), stride=(1, 1), bias=False)
          (2): BatchNorm2d(1024, eps=1e-05, momentum=0.1, affine=True, track_running_stats=True)
        )
      )
      (1): Bottle2neck(
        (conv1): Conv2d(1024, 416, kernel_size=(1, 1), stride=(1, 1), bias=False)
        (bn1): BatchNorm2d(416, eps=1e-05, momentum=0.1, affine=True, track_running_stats=True)
        (convs): ModuleList(
          (0-2): 3 x Conv2d(104, 104, kernel_size=(3, 3), stride=(1, 1), padding=(1, 1), bias=False)
        )
        (bns): ModuleList(
          (0-2): 3 x BatchNorm2d(104, eps=1e-05, momentum=0.1, affine=True, track_running_stats=True)
        )
        (conv3): Conv2d(416, 1024, kernel_size=(1, 1), stride=(1, 1), bias=False)
        (bn3): BatchNorm2d(1024, eps=1e-05, momentum=0.1, affine=True, track_running_stats=True)
        (relu): ReLU(inplace=True)
      )
      (2): Bottle2neck(
        (conv1): Conv2d(1024, 416, kernel_size=(1, 1), stride=(1, 1), bias=False)
        (bn1): BatchNorm2d(416, eps=1e-05, momentum=0.1, affine=True, track_running_stats=True)
        (convs): ModuleList(
          (0-2): 3 x Conv2d(104, 104, kernel_size=(3, 3), stride=(1, 1), padding=(1, 1), bias=False)
        )
        (bns): ModuleList(
          (0-2): 3 x BatchNorm2d(104, eps=1e-05, momentum=0.1, affine=True, track_running_stats=True)
        )
        (conv3): Conv2d(416, 1024, kernel_size=(1, 1), stride=(1, 1), bias=False)
        (bn3): BatchNorm2d(1024, eps=1e-05, momentum=0.1, affine=True, track_running_stats=True)
        (relu): ReLU(inplace=True)
      )
      (3): Bottle2neck(
        (conv1): Conv2d(1024, 416, kernel_size=(1, 1), stride=(1, 1), bias=False)
        (bn1): BatchNorm2d(416, eps=1e-05, momentum=0.1, affine=True, track_running_stats=True)
        (convs): ModuleList(
          (0-2): 3 x Conv2d(104, 104, kernel_size=(3, 3), stride=(1, 1), padding=(1, 1), bias=False)
        )
        (bns): ModuleList(
          (0-2): 3 x BatchNorm2d(104, eps=1e-05, momentum=0.1, affine=True, track_running_stats=True)
        )
        (conv3): Conv2d(416, 1024, kernel_size=(1, 1), stride=(1, 1), bias=False)
        (bn3): BatchNorm2d(1024, eps=1e-05, momentum=0.1, affine=True, track_running_stats=True)
        (relu): ReLU(inplace=True)
      )
      (4): Bottle2neck(
        (conv1): Conv2d(1024, 416, kernel_size=(1, 1), stride=(1, 1), bias=False)
        (bn1): BatchNorm2d(416, eps=1e-05, momentum=0.1, affine=True, track_running_stats=True)
        (convs): ModuleList(
          (0-2): 3 x Conv2d(104, 104, kernel_size=(3, 3), stride=(1, 1), padding=(1, 1), bias=False)
        )
        (bns): ModuleList(
          (0-2): 3 x BatchNorm2d(104, eps=1e-05, momentum=0.1, affine=True, track_running_stats=True)
        )
        (conv3): Conv2d(416, 1024, kernel_size=(1, 1), stride=(1, 1), bias=False)
        (bn3): BatchNorm2d(1024, eps=1e-05, momentum=0.1, affine=True, track_running_stats=True)
        (relu): ReLU(inplace=True)
      )
      (5): Bottle2neck(
        (conv1): Conv2d(1024, 416, kernel_size=(1, 1), stride=(1, 1), bias=False)
        (bn1): BatchNorm2d(416, eps=1e-05, momentum=0.1, affine=True, track_running_stats=True)
        (convs): ModuleList(
          (0-2): 3 x Conv2d(104, 104, kernel_size=(3, 3), stride=(1, 1), padding=(1, 1), bias=False)
        )
        (bns): ModuleList(
          (0-2): 3 x BatchNorm2d(104, eps=1e-05, momentum=0.1, affine=True, track_running_stats=True)
        )
        (conv3): Conv2d(416, 1024, kernel_size=(1, 1), stride=(1, 1), bias=False)
        (bn3): BatchNorm2d(1024, eps=1e-05, momentum=0.1, affine=True, track_running_stats=True)
        (relu): ReLU(inplace=True)
      )
    )
    (layer4): Sequential(
      (0): Bottle2neck(
        (conv1): Conv2d(1024, 832, kernel_size=(1, 1), stride=(1, 1), bias=False)
        (bn1): BatchNorm2d(832, eps=1e-05, momentum=0.1, affine=True, track_running_stats=True)
        (pool): AvgPool2d(kernel_size=3, stride=1, padding=1)
        (convs): ModuleList(
          (0-2): 3 x Conv2d(208, 208, kernel_size=(3, 3), stride=(1, 1), padding=(2, 2), dilation=(2, 2), bias=False)
        )
        (bns): ModuleList(
          (0-2): 3 x BatchNorm2d(208, eps=1e-05, momentum=0.1, affine=True, track_running_stats=True)
        )
        (conv3): Conv2d(832, 2048, kernel_size=(1, 1), stride=(1, 1), bias=False)
        (bn3): BatchNorm2d(2048, eps=1e-05, momentum=0.1, affine=True, track_running_stats=True)
        (relu): ReLU(inplace=True)
        (downsample): Sequential(
          (0): AvgPool2d(kernel_size=1, stride=1, padding=0)
          (1): Conv2d(1024, 2048, kernel_size=(1, 1), stride=(1, 1), bias=False)
          (2): BatchNorm2d(2048, eps=1e-05, momentum=0.1, affine=True, track_running_stats=True)
        )
      )
      (1): Bottle2neck(
        (conv1): Conv2d(2048, 832, kernel_size=(1, 1), stride=(1, 1), bias=False)
        (bn1): BatchNorm2d(832, eps=1e-05, momentum=0.1, affine=True, track_running_stats=True)
        (convs): ModuleList(
          (0-2): 3 x Conv2d(208, 208, kernel_size=(3, 3), stride=(1, 1), padding=(2, 2), dilation=(2, 2), bias=False)
        )
        (bns): ModuleList(
          (0-2): 3 x BatchNorm2d(208, eps=1e-05, momentum=0.1, affine=True, track_running_stats=True)
        )
        (conv3): Conv2d(832, 2048, kernel_size=(1, 1), stride=(1, 1), bias=False)
        (bn3): BatchNorm2d(2048, eps=1e-05, momentum=0.1, affine=True, track_running_stats=True)
        (relu): ReLU(inplace=True)
      )
      (2): Bottle2neck(
        (conv1): Conv2d(2048, 832, kernel_size=(1, 1), stride=(1, 1), bias=False)
        (bn1): BatchNorm2d(832, eps=1e-05, momentum=0.1, affine=True, track_running_stats=True)
        (convs): ModuleList(
          (0-2): 3 x Conv2d(208, 208, kernel_size=(3, 3), stride=(1, 1), padding=(2, 2), dilation=(2, 2), bias=False)
        )
        (bns): ModuleList(
          (0-2): 3 x BatchNorm2d(208, eps=1e-05, momentum=0.1, affine=True, track_running_stats=True)
        )
        (conv3): Conv2d(832, 2048, kernel_size=(1, 1), stride=(1, 1), bias=False)
        (bn3): BatchNorm2d(2048, eps=1e-05, momentum=0.1, affine=True, track_running_stats=True)
        (relu): ReLU(inplace=True)
      )
    )
    (avgpool): AdaptiveAvgPool2d(output_size=1)
    (fc): Linear(in_features=2048, out_features=1000, bias=True)
  )
  (ca_1): ChannelAttention(
    (avg_pool): AdaptiveAvgPool2d(output_size=1)
    (max_pool): AdaptiveMaxPool2d(output_size=1)
    (fc1): Conv2d(256, 16, kernel_size=(1, 1), stride=(1, 1), bias=False)
    (relu1): ReLU()
    (fc2): Conv2d(16, 256, kernel_size=(1, 1), stride=(1, 1), bias=False)
    (sigmoid): Sigmoid()
  )
  (sa_1): SpatialAttention(
    (conv1): Conv2d(2, 1, kernel_size=(7, 7), stride=(1, 1), padding=(3, 3), bias=False)
    (sigmoid): Sigmoid()
  )
  (ca_2): ChannelAttention(
    (avg_pool): AdaptiveAvgPool2d(output_size=1)
    (max_pool): AdaptiveMaxPool2d(output_size=1)
    (fc1): Conv2d(512, 32, kernel_size=(1, 1), stride=(1, 1), bias=False)
    (relu1): ReLU()
    (fc2): Conv2d(32, 512, kernel_size=(1, 1), stride=(1, 1), bias=False)
    (sigmoid): Sigmoid()
  )
  (sa_2): SpatialAttention(
    (conv1): Conv2d(2, 1, kernel_size=(7, 7), stride=(1, 1), padding=(3, 3), bias=False)
    (sigmoid): Sigmoid()
  )
  (ca_3): ChannelAttention(
    (avg_pool): AdaptiveAvgPool2d(output_size=1)
    (max_pool): AdaptiveMaxPool2d(output_size=1)
    (fc1): Conv2d(1024, 64, kernel_size=(1, 1), stride=(1, 1), bias=False)
    (relu1): ReLU()
    (fc2): Conv2d(64, 1024, kernel_size=(1, 1), stride=(1, 1), bias=False)
    (sigmoid): Sigmoid()
  )
  (sa_3): SpatialAttention(
    (conv1): Conv2d(2, 1, kernel_size=(7, 7), stride=(1, 1), padding=(3, 3), bias=False)
    (sigmoid): Sigmoid()
  )
  (ca_4): ChannelAttention(
    (avg_pool): AdaptiveAvgPool2d(output_size=1)
    (max_pool): AdaptiveMaxPool2d(output_size=1)
    (fc1): Conv2d(2048, 128, kernel_size=(1, 1), stride=(1, 1), bias=False)
    (relu1): ReLU()
    (fc2): Conv2d(128, 2048, kernel_size=(1, 1), stride=(1, 1), bias=False)
    (sigmoid): Sigmoid()
  )
  (sa_4): SpatialAttention(
    (conv1): Conv2d(2, 1, kernel_size=(7, 7), stride=(1, 1), padding=(3, 3), bias=False)
    (sigmoid): Sigmoid()
  )
  (Translayer_1): BasicConv2d(
    (conv): Conv2d(256, 32, kernel_size=(1, 1), stride=(1, 1), bias=False)
    (bn): BatchNorm2d(32, eps=1e-05, momentum=0.1, affine=True, track_running_stats=True)
    (relu): ReLU(inplace=True)
  )
  (Translayer_2): BasicConv2d(
    (conv): Conv2d(512, 32, kernel_size=(1, 1), stride=(1, 1), bias=False)
    (bn): BatchNorm2d(32, eps=1e-05, momentum=0.1, affine=True, track_running_stats=True)
    (relu): ReLU(inplace=True)
  )
  (Translayer_3): BasicConv2d(
    (conv): Conv2d(1024, 32, kernel_size=(1, 1), stride=(1, 1), bias=False)
    (bn): BatchNorm2d(32, eps=1e-05, momentum=0.1, affine=True, track_running_stats=True)
    (relu): ReLU(inplace=True)
  )
  (Translayer_4): BasicConv2d(
    (conv): Conv2d(2048, 32, kernel_size=(1, 1), stride=(1, 1), bias=False)
    (bn): BatchNorm2d(32, eps=1e-05, momentum=0.1, affine=True, track_running_stats=True)
    (relu): ReLU(inplace=True)
  )
  (attention_1): AttentionLayer(
    (convs): ModuleList(
      (0-3): 4 x Conv2d(32, 32, kernel_size=(3, 3), stride=(1, 1), padding=(1, 1))
    )
  )
  (attention_2): AttentionLayer(
    (convs): ModuleList(
      (0-3): 4 x Conv2d(32, 32, kernel_size=(3, 3), stride=(1, 1), padding=(1, 1))
    )
  )
  (attention_3): AttentionLayer(
    (convs): ModuleList(
      (0-3): 4 x Conv2d(32, 32, kernel_size=(3, 3), stride=(1, 1), padding=(1, 1))
    )
  )
  (attention_4): AttentionLayer(
    (convs): ModuleList(
      (0-3): 4 x Conv2d(32, 32, kernel_size=(3, 3), stride=(1, 1), padding=(1, 1))
    )
  )
  (seg_outs): ModuleList(
    (0-3): 4 x Conv2d(32, 2, kernel_size=(1, 1), stride=(1, 1))
  )
  (deconv2): ConvTranspose2d(32, 32, kernel_size=(3, 3), stride=(1, 1), padding=(1, 1), bias=False)
  (deconv3): ConvTranspose2d(32, 32, kernel_size=(4, 4), stride=(2, 2), padding=(1, 1), bias=False)
  (deconv4): ConvTranspose2d(32, 32, kernel_size=(4, 4), stride=(2, 2), padding=(1, 1), bias=False)
  (deconv5): ConvTranspose2d(32, 32, kernel_size=(4, 4), stride=(2, 2), padding=(1, 1), bias=False)
)
===========<class 'nnunetv2.training.network.model.dim2.res2net.res2unetv2.Res2Network'>============
ds wegihts: [0.53333333 0.26666667 0.13333333 0.06666667]

This is the configuration used by this training:
Configuration name: 2d
 {'data_identifier': 'nnUNetPlans_2d', 'preprocessor_name': 'DefaultPreprocessor', 'batch_size'
…
