…
Isensee, F., Jaeger, P. F., Kohl, S. A., Petersen, J., & Maier-Hein, K. H. (2021). nnU-Net: a self-configuring method for deep learning-based biomedical image segmentation. Nature methods, 18(2), 203-211.
#######################################################################

WARNING: Cannot continue training because there seems to be no checkpoint available to continue from. Starting a new training...
loading /afs/crc.nd.edu/user/y/ypeng4/Polyp-PVT_2/pvt_pth/pvt_v2_b2.pth
loading /afs/crc.nd.edu/user/y/ypeng4/Polyp-PVT_2/pvt_pth/pvt_v2_b2.pth
model: PVTUNet(
  (backbone): Identity()
  (model): Unet(
    (encoder): PVTEncoder(
      (backbone): pvt_v2_b2(
        (patch_embed1): OverlapPatchEmbed(
          (proj): Conv2d(3, 64, kernel_size=(7, 7), stride=(4, 4), padding=(3, 3))
          (norm): LayerNorm((64,), eps=1e-05, elementwise_affine=True)
        )
        (patch_embed2): OverlapPatchEmbed(
          (proj): Conv2d(64, 128, kernel_size=(3, 3), stride=(2, 2), padding=(1, 1))
          (norm): LayerNorm((128,), eps=1e-05, elementwise_affine=True)
        )
        (patch_embed3): OverlapPatchEmbed(
          (proj): Conv2d(128, 320, kernel_size=(3, 3), stride=(2, 2), padding=(1, 1))
          (norm): LayerNorm((320,), eps=1e-05, elementwise_affine=True)
        )
        (patch_embed4): OverlapPatchEmbed(
          (proj): Conv2d(320, 512, kernel_size=(3, 3), stride=(2, 2), padding=(1, 1))
          (norm): LayerNorm((512,), eps=1e-05, elementwise_affine=True)
        )
        (block1): ModuleList(
          (0): Block(
            (norm1): LayerNorm((64,), eps=1e-06, elementwise_affine=True)
            (attn): Attention(
              (q): Linear(in_features=64, out_features=64, bias=True)
              (kv): Linear(in_features=64, out_features=128, bias=True)
              (attn_drop): Dropout(p=0.0, inplace=False)
              (proj): Linear(in_features=64, out_features=64, bias=True)
              (proj_drop): Dropout(p=0.0, inplace=False)
              (sr): Conv2d(64, 64, kernel_size=(8, 8), stride=(8, 8))
              (norm): LayerNorm((64,), eps=1e-05, elementwise_affine=True)
            )
            (drop_path): Identity()
            (norm2): LayerNorm((64,), eps=1e-06, elementwise_affine=True)
            (mlp): Mlp(
              (fc1): Linear(in_features=64, out_features=512, bias=True)
              (dwconv): DWConv(
                (dwconv): Conv2d(512, 512, kernel_size=(3, 3), stride=(1, 1), padding=(1, 1), groups=512)
              )
              (act): GELU(approximate='none')
              (fc2): Linear(in_features=512, out_features=64, bias=True)
              (drop): Dropout(p=0.0, inplace=False)
            )
          )
          (1): Block(
            (norm1): LayerNorm((64,), eps=1e-06, elementwise_affine=True)
            (attn): Attention(
              (q): Linear(in_features=64, out_features=64, bias=True)
              (kv): Linear(in_features=64, out_features=128, bias=True)
              (attn_drop): Dropout(p=0.0, inplace=False)
              (proj): Linear(in_features=64, out_features=64, bias=True)
              (proj_drop): Dropout(p=0.0, inplace=False)
              (sr): Conv2d(64, 64, kernel_size=(8, 8), stride=(8, 8))
              (norm): LayerNorm((64,), eps=1e-05, elementwise_affine=True)
            )
            (drop_path): DropPath(drop_prob=0.007)
            (norm2): LayerNorm((64,), eps=1e-06, elementwise_affine=True)
            (mlp): Mlp(
              (fc1): Linear(in_features=64, out_features=512, bias=True)
              (dwconv): DWConv(
                (dwconv): Conv2d(512, 512, kernel_size=(3, 3), stride=(1, 1), padding=(1, 1), groups=512)
              )
              (act): GELU(approximate='none')
              (fc2): Linear(in_features=512, out_features=64, bias=True)
              (drop): Dropout(p=0.0, inplace=False)
            )
          )
          (2): Block(
            (norm1): LayerNorm((64,), eps=1e-06, elementwise_affine=True)
            (attn): Attention(
              (q): Linear(in_features=64, out_features=64, bias=True)
              (kv): Linear(in_features=64, out_features=128, bias=True)
              (attn_drop): Dropout(p=0.0, inplace=False)
              (proj): Linear(in_features=64, out_features=64, bias=True)
              (proj_drop): Dropout(p=0.0, inplace=False)
              (sr): Conv2d(64, 64, kernel_size=(8, 8), stride=(8, 8))
              (norm): LayerNorm((64,), eps=1e-05, elementwise_affine=True)
            )
            (drop_path): DropPath(drop_prob=0.013)
            (norm2): LayerNorm((64,), eps=1e-06, elementwise_affine=True)
            (mlp): Mlp(
              (fc1): Linear(in_features=64, out_features=512, bias=True)
              (dwconv): DWConv(
                (dwconv): Conv2d(512, 512, kernel_size=(3, 3), stride=(1, 1), padding=(1, 1), groups=512)
              )
              (act): GELU(approximate='none')
              (fc2): Linear(in_features=512, out_features=64, bias=True)
              (drop): Dropout(p=0.0, inplace=False)
            )
          )
        )
        (norm1): LayerNorm((64,), eps=1e-06, elementwise_affine=True)
        (block2): ModuleList(
          (0): Block(
            (norm1): LayerNorm((128,), eps=1e-06, elementwise_affine=True)
            (attn): Attention(
              (q): Linear(in_features=128, out_features=128, bias=True)
              (kv): Linear(in_features=128, out_features=256, bias=True)
              (attn_drop): Dropout(p=0.0, inplace=False)
              (proj): Linear(in_features=128, out_features=128, bias=True)
              (proj_drop): Dropout(p=0.0, inplace=False)
              (sr): Conv2d(128, 128, kernel_size=(4, 4), stride=(4, 4))
              (norm): LayerNorm((128,), eps=1e-05, elementwise_affine=True)
            )
            (drop_path): DropPath(drop_prob=0.020)
            (norm2): LayerNorm((128,), eps=1e-06, elementwise_affine=True)
            (mlp): Mlp(
              (fc1): Linear(in_features=128, out_features=1024, bias=True)
              (dwconv): DWConv(
                (dwconv): Conv2d(1024, 1024, kernel_size=(3, 3), stride=(1, 1), padding=(1, 1), groups=1024)
              )
              (act): GELU(approximate='none')
              (fc2): Linear(in_features=1024, out_features=128, bias=True)
              (drop): Dropout(p=0.0, inplace=False)
            )
          )
          (1): Block(
            (norm1): LayerNorm((128,), eps=1e-06, elementwise_affine=True)
            (attn): Attention(
              (q): Linear(in_features=128, out_features=128, bias=True)
              (kv): Linear(in_features=128, out_features=256, bias=True)
              (attn_drop): Dropout(p=0.0, inplace=False)
              (proj): Linear(in_features=128, out_features=128, bias=True)
              (proj_drop): Dropout(p=0.0, inplace=False)
              (sr): Conv2d(128, 128, kernel_size=(4, 4), stride=(4, 4))
              (norm): LayerNorm((128,), eps=1e-05, elementwise_affine=True)
            )
            (drop_path): DropPath(drop_prob=0.027)
            (norm2): LayerNorm((128,), eps=1e-06, elementwise_affine=True)
            (mlp): Mlp(
              (fc1): Linear(in_features=128, out_features=1024, bias=True)
              (dwconv): DWConv(
                (dwconv): Conv2d(1024, 1024, kernel_size=(3, 3), stride=(1, 1), padding=(1, 1), groups=1024)
              )
              (act): GELU(approximate='none')
              (fc2): Linear(in_features=1024, out_features=128, bias=True)
              (drop): Dropout(p=0.0, inplace=False)
            )
          )
          (2): Block(
            (norm1): LayerNorm((128,), eps=1e-06, elementwise_affine=True)
            (attn): Attention(
              (q): Linear(in_features=128, out_features=128, bias=True)
              (kv): Linear(in_features=128, out_features=256, bias=True)
              (attn_drop): Dropout(p=0.0, inplace=False)
              (proj): Linear(in_features=128, out_features=128, bias=True)
              (proj_drop): Dropout(p=0.0, inplace=False)
              (sr): Conv2d(128, 128, kernel_size=(4, 4), stride=(4, 4))
              (norm): LayerNorm((128,), eps=1e-05, elementwise_affine=True)
            )
            (drop_path): DropPath(drop_prob=0.033)
            (norm2): LayerNorm((128,), eps=1e-06, elementwise_affine=True)
            (mlp): Mlp(
              (fc1): Linear(in_features=128, out_features=1024, bias=True)
              (dwconv): DWConv(
                (dwconv): Conv2d(1024, 1024, kernel_size=(3, 3), stride=(1, 1), padding=(1, 1), groups=1024)
              )
              (act): GELU(approximate='none')
              (fc2): Linear(in_features=1024, out_features=128, bias=True)
              (drop): Dropout(p=0.0, inplace=False)
            )
          )
          (3): Block(
            (norm1): LayerNorm((128,), eps=1e-06, elementwise_affine=True)
            (attn): Attention(
              (q): Linear(in_features=128, out_features=128, bias=True)
              (kv): Linear(in_features=128, out_features=256, bias=True)
              (attn_drop): Dropout(p=0.0, inplace=False)
              (proj): Linear(in_features=128, out_features=128, bias=True)
              (proj_drop): Dropout(p=0.0, inplace=False)
              (sr): Conv2d(128, 128, kernel_size=(4, 4), stride=(4, 4))
              (norm): LayerNorm((128,), eps=1e-05, elementwise_affine=True)
            )
            (drop_path): DropPath(drop_prob=0.040)
            (norm2): LayerNorm((128,), eps=1e-06, elementwise_affine=True)
            (mlp): Mlp(
              (fc1): Linear(in_features=128, out_features=1024, bias=True)
              (dwconv): DWConv(
                (dwconv): Conv2d(1024, 1024, kernel_size=(3, 3), stride=(1, 1), padding=(1, 1), groups=1024)
              )
              (act): GELU(approximate='none')
              (fc2): Linear(in_features=1024, out_features=128, bias=True)
              (drop): Dropout(p=0.0, inplace=False)
            )
          )
        )
        (norm2): LayerNorm((128,), eps=1e-06, elementwise_affine=True)
        (block3): ModuleList(
          (0): Block(
            (norm1): LayerNorm((320,), eps=1e-06, elementwise_affine=True)
            (attn): Attention(
              (q): Linear(in_features=320, out_features=320, bias=True)
              (kv): Linear(in_features=320, out_features=640, bias=True)
              (attn_drop): Dropout(p=0.0, inplace=False)
              (proj): Linear(in_features=320, out_features=320, bias=True)
              (proj_drop): Dropout(p=0.0, inplace=False)
              (sr): Conv2d(320, 320, kernel_size=(2, 2), stride=(2, 2))
              (norm): LayerNorm((320,), eps=1e-05, elementwise_affine=True)
            )
            (drop_path): DropPath(drop_prob=0.047)
            (norm2): LayerNorm((320,), eps=1e-06, elementwise_affine=True)
            (mlp): Mlp(
              (fc1): Linear(in_features=320, out_features=1280, bias=True)
              (dwconv): DWConv(
                (dwconv): Conv2d(1280, 1280, kernel_size=(3, 3), stride=(1, 1), padding=(1, 1), groups=1280)
              )
              (act): GELU(approximate='none')
              (fc2): Linear(in_features=1280, out_features=320, bias=True)
              (drop): Dropout(p=0.0, inplace=False)
            )
          )
          (1): Block(
            (norm1): LayerNorm((320,), eps=1e-06, elementwise_affine=True)
            (attn): Attention(
              (q): Linear(in_features=320, out_features=320, bias=True)
              (kv): Linear(in_features=320, out_features=640, bias=True)
              (attn_drop): Dropout(p=0.0, inplace=False)
              (proj): Linear(in_features=320, out_features=320, bias=True)
              (proj_drop): Dropout(p=0.0, inplace=False)
              (sr): Conv2d(320, 320, kernel_size=(2, 2), stride=(2, 2))
              (norm): LayerNorm((320,), eps=1e-05, elementwise_affine=True)
            )
            (drop_path): DropPath(drop_prob=0.053)
            (norm2): LayerNorm((320,), eps=1e-06, elementwise_affine=True)
            (mlp): Mlp(
              (fc1): Linear(in_features=320, out_features=1280, bias=True)
              (dwconv): DWConv(
                (dwconv): Conv2d(1280, 1280, kernel_size=(3, 3), stride=(1, 1), padding=(1, 1), groups=1280)
              )
              (act): GELU(approximate='none')
              (fc2): Linear(in_features=1280, out_features=320, bias=True)
              (drop): Dropout(p=0.0, inplace=False)
            )
          )
          (2): Block(
            (norm1): LayerNorm((320,), eps=1e-06, elementwise_affine=True)
            (attn): Attention(
              (q): Linear(in_features=320, out_features=320, bias=True)
              (kv): Linear(in_features=320, out_features=640, bias=True)
              (attn_drop): Dropout(p=0.0, inplace=False)
              (proj): Linear(in_features=320, out_features=320, bias=True)
              (proj_drop): Dropout(p=0.0, inplace=False)
              (sr): Conv2d(320, 320, kernel_size=(2, 2), stride=(2, 2))
              (norm): LayerNorm((320,), eps=1e-05, elementwise_affine=True)
            )
            (drop_path): DropPath(drop_prob=0.060)
            (norm2): LayerNorm((320,), eps=1e-06, elementwise_affine=True)
            (mlp): Mlp(
              (fc1): Linear(in_features=320, out_features=1280, bias=True)
              (dwconv): DWConv(
                (dwconv): Conv2d(1280, 1280, kernel_size=(3, 3), stride=(1, 1), padding=(1, 1), groups=1280)
              )
              (act): GELU(approximate='none')
              (fc2): Linear(in_features=1280, out_features=320, bias=True)
              (drop): Dropout(p=0.0, inplace=False)
            )
          )
          (3): Block(
            (norm1): LayerNorm((320,), eps=1e-06, elementwise_affine=True)
            (attn): Attention(
              (q): Linear(in_features=320, out_features=320, bias=True)
              (kv): Linear(in_features=320, out_features=640, bias=True)
              (attn_drop): Dropout(p=0.0, inplace=False)
              (proj): Linear(in_features=320, out_features=320, bias=True)
              (proj_drop): Dropout(p=0.0, inplace=False)
              (sr): Conv2d(320, 320, kernel_size=(2, 2), stride=(2, 2))
              (norm): LayerNorm((320,), eps=1e-05, elementwise_affine=True)
            )
            (drop_path): DropPath(drop_prob=0.067)
            (norm2): LayerNorm((320,), eps=1e-06, elementwise_affine=True)
            (mlp): Mlp(
              (fc1): Linear(in_features=320, out_features=1280, bias=True)
              (dwconv): DWConv(
                (dwconv): Conv2d(1280, 1280, kernel_size=(3, 3), stride=(1, 1), padding=(1, 1), groups=1280)
              )
              (act): GELU(approximate='none')
              (fc2): Linear(in_features=1280, out_features=320, bias=True)
              (drop): Dropout(p=0.0, inplace=False)
            )
          )
          (4): Block(
            (norm1): LayerNorm((320,), eps=1e-06, elementwise_affine=True)
            (attn): Attention(
              (q): Linear(in_features=320, out_features=320, bias=True)
              (kv): Linear(in_features=320, out_features=640, bias=True)
              (attn_drop): Dropout(p=0.0, inplace=False)
              (proj): Linear(in_features=320, out_features=320, bias=True)
              (proj_drop): Dropout(p=0.0, inplace=False)
              (sr): Conv2d(320, 320, kernel_size=(2, 2), stride=(2, 2))
              (norm): LayerNorm((320,), eps=1e-05, elementwise_affine=True)
            )
            (drop_path): DropPath(drop_prob=0.073)
            (norm2): LayerNorm((320,), eps=1e-06, elementwise_affine=True)
            (mlp): Mlp(
              (fc1): Linear(in_features=320, out_features=1280, bias=True)
              (dwconv): DWConv(
                (dwconv): Conv2d(1280, 1280, kernel_size=(3, 3), stride=(1, 1), padding=(1, 1), groups=1280)
              )
              (act): GELU(approximate='none')
              (fc2): Linear(in_features=1280, out_features=320, bias=True)
              (drop): Dropout(p=0.0, inplace=False)
            )
          )
          (5): Block(
            (norm1): LayerNorm((320,), eps=1e-06, elementwise_affine=True)
            (attn): Attention(
              (q): Linear(in_features=320, out_features=320, bias=True)
              (kv): Linear(in_features=320, out_features=640, bias=True)
              (attn_drop): Dropout(p=0.0, inplace=False)
              (proj): Linear(in_features=320, out_features=320, bias=True)
              (proj_drop): Dropout(p=0.0, inplace=False)
              (sr): Conv2d(320, 320, kernel_size=(2, 2), stride=(2, 2))
              (norm): LayerNorm((320,), eps=1e-05, elementwise_affine=True)
            )
            (drop_path): DropPath(drop_prob=0.080)
            (norm2): LayerNorm((320,), eps=1e-06, elementwise_affine=True)
            (mlp): Mlp(
              (fc1): Linear(in_features=320, out_features=1280, bias=True)
              (dwconv): DWConv(
                (dwconv): Conv2d(1280, 1280, kernel_size=(3, 3), stride=(1, 1), padding=(1, 1), groups=1280)
              )
              (act): GELU(approximate='none')
              (fc2): Linear(in_features=1280, out_features=320, bias=True)
              (drop): Dropout(p=0.0, inplace=False)
            )
          )
        )
        (norm3): LayerNorm((320,), eps=1e-06, elementwise_affine=True)
        (block4): ModuleList(
          (0): Block(
            (norm1): LayerNorm((512,), eps=1e-06, elementwise_affine=True)
            (attn): Attention(
              (q): Linear(in_features=512, out_features=512, bias=True)
              (kv): Linear(in_features=512, out_features=1024, bias=True)
              (attn_drop): Dropout(p=0.0, inplace=False)
              (proj): Linear(in_features=512, out_features=512, bias=True)
              (proj_drop): Dropout(p=0.0, inplace=False)
            )
            (drop_path): DropPath(drop_prob=0.087)
            (norm2): LayerNorm((512,), eps=1e-06, elementwise_affine=True)
            (mlp): Mlp(
              (fc1): Linear(in_features=512, out_features=2048, bias=True)
              (dwconv): DWConv(
                (dwconv): Conv2d(2048, 2048, kernel_size=(3, 3), stride=(1, 1), padding=(1, 1), groups=2048)
              )
              (act): GELU(approximate='none')
              (fc2): Linear(in_features=2048, out_features=512, bias=True)
              (drop): Dropout(p=0.0, inplace=False)
            )
          )
          (1): Block(
            (norm1): LayerNorm((512,), eps=1e-06, elementwise_affine=True)
            (attn): Attention(
              (q): Linear(in_features=512, out_features=512, bias=True)
              (kv): Linear(in_features=512, out_features=1024, bias=True)
              (attn_drop): Dropout(p=0.0, inplace=False)
              (proj): Linear(in_features=512, out_features=512, bias=True)
              (proj_drop): Dropout(p=0.0, inplace=False)
            )
            (drop_path): DropPath(drop_prob=0.093)
            (norm2): LayerNorm((512,), eps=1e-06, elementwise_affine=True)
            (mlp): Mlp(
              (fc1): Linear(in_features=512, out_features=2048, bias=True)
              (dwconv): DWConv(
                (dwconv): Conv2d(2048, 2048, kernel_size=(3, 3), stride=(1, 1), padding=(1, 1), groups=2048)
              )
              (act): GELU(approximate='none')
              (fc2): Linear(in_features=2048, out_features=512, bias=True)
              (drop): Dropout(p=0.0, inplace=False)
            )
          )
          (2): Block(
            (norm1): LayerNorm((512,), eps=1e-06, elementwise_affine=True)
            (attn): Attention(
              (q): Linear(in_features=512, out_features=512, bias=True)
              (kv): Linear(in_features=512, out_features=1024, bias=True)
              (attn_drop): Dropout(p=0.0, inplace=False)
              (proj): Linear(in_features=512, out_features=512, bias=True)
              (proj_drop): Dropout(p=0.0, inplace=False)
            )
            (drop_path): DropPath(drop_prob=0.100)
            (norm2): LayerNorm((512,), eps=1e-06, elementwise_affine=True)
            (mlp): Mlp(
              (fc1): Linear(in_features=512, out_features=2048, bias=True)
              (dwconv): DWConv(
                (dwconv): Conv2d(2048, 2048, kernel_size=(3, 3), stride=(1, 1), padding=(1, 1), groups=2048)
              )
              (act): GELU(approximate='none')
              (fc2): Linear(in_features=2048, out_features=512, bias=True)
              (drop): Dropout(p=0.0, inplace=False)
            )
          )
        )
        (norm4): LayerNorm((512,), eps=1e-06, elementwise_affine=True)
      )
    )
    (decoder): UnetDecoder(
      (center): Identity()
      (blocks): ModuleList(
        (0): DecoderBlock(
          (conv1): Conv2dReLU(
            (0): Conv2d(832, 256, kernel_size=(3, 3), stride=(1, 1), padding=(1, 1), bias=False)
            (1): BatchNorm2d(256, eps=1e-05, momentum=0.1, affine=True, track_running_stats=True)
            (2): ReLU(inplace=True)
          )
          (attention1): Attention(
            (attention): Identity()
          )
          (conv2): Conv2dReLU(
            (0): Conv2d(256, 256, kernel_size=(3, 3), stride=(1, 1), padding=(1, 1), bias=False)
            (1): BatchNorm2d(256, eps=1e-05, momentum=0.1, affine=True, track_running_stats=True)
            (2): ReLU(inplace=True)
          )
          (attention2): Attention(
            (attention): Identity()
          )
        )
        (1): DecoderBlock(
          (conv1): Conv2dReLU(
            (0): Conv2d(384, 128, kernel_size=(3, 3), stride=(1, 1), padding=(1, 1), bias=False)
            (1): BatchNorm2d(128, eps=1e-05, momentum=0.1, affine=True, track_running_stats=True)
            (2): ReLU(inplace=True)
          )
          (attention1): Attention(
            (attention): Identity()
          )
          (conv2): Conv2dReLU(
            (0): Conv2d(128, 128, kernel_size=(3, 3), stride=(1, 1), padding=(1, 1), bias=False)
            (1): BatchNorm2d(128, eps=1e-05, momentum=0.1, affine=True, track_running_stats=True)
            (2): ReLU(inplace=True)
          )
          (attention2): Attention(
            (attention): Identity()
          )
        )
        (2): DecoderBlock(
          (conv1): Conv2dReLU(
            (0): Conv2d(192, 64, kernel_size=(3, 3), stride=(1, 1), padding=(1, 1), bias=False)
            (1): BatchNorm2d(64, eps=1e-05, momentum=0.1, affine=True, track_running_stats=True)
            (2): ReLU(inplace=True)
          )
          (attention1): Attention(
            (attention): Identity()
          )
          (conv2): Conv2dReLU(
            (0): Conv2d(64, 64, kernel_size=(3, 3), stride=(1, 1), padding=(1, 1), bias=False)
            (1): BatchNorm2d(64, eps=1e-05, momentum=0.1, affine=True, track_running_stats=True)
            (2): ReLU(inplace=True)
          )
          (attention2): Attention(
            (attention): Identity()
          )
        )
        (3): DecoderBlock(
          (conv1): Conv2dReLU(
            (0): Conv2d(128, 32, kernel_size=(3, 3), stride=(1, 1), padding=(1, 1), bias=False)
            (1): BatchNorm2d(32, eps=1e-05, momentum=0.1, affine=True, track_running_stats=True)
            (2): ReLU(inplace=True)
          )
          (attention1): Attention(
            (attention): Identity()
          )
          (conv2): Conv2dReLU(
            (0): Conv2d(32, 32, kernel_size=(3, 3), stride=(1, 1), padding=(1, 1), bias=False)
            (1): BatchNorm2d(32, eps=1e-05, momentum=0.1, affine=True, track_running_stats=True)
            (2): ReLU(inplace=True)
          )
          (attention2): Attention(
            (attention): Identity()
          )
        )
        (4): DecoderBlock(
          (conv1): Conv2dReLU(
            (0): Conv2d(32, 16, kernel_size=(3, 3), stride=(1, 1), padding=(1, 1), bias=False)
            (1): BatchNorm2d(16, eps=1e-05, momentum=0.1, affine=True, track_running_stats=True)
            (2): ReLU(inplace=True)
          )
          (attention1): Attention(
            (attention): Identity()
          )
          (conv2): Conv2dReLU(
            (0): Conv2d(16, 16, kernel_size=(3, 3), stride=(1, 1), padding=(1, 1), bias=False)
            (1): BatchNorm2d(16, eps=1e-05, momentum=0.1, affine=True, track_running_stats=True)
            (2): ReLU(inplace=True)
          )
          (attention2): Attention(
            (attention): Identity()
          )
        )
      )
    )
    (segmentation_head): SegmentationHead(
      (0): Conv2d(16, 2, kernel_size=(3, 3), stride=(1, 1), padding=(1, 1))
      (1): Identity()
      (2): Activation(
        (activation): Identity()
      )
    )
  )
)
================<class 'nnunetv2.training.network.model.dim2.pvt.pvt_unet.PVTUNet'>=================
ds wegihts: [0.53333333 0.26666667 0.13333333 0.06666667]

This is the configuration used by this training:
Configuration name: 2d
 {'data_iden
…
