…
2023-08-19 16:20:57.491529: output folder: /afs/crc.nd.edu/user/y/ypeng4/data/trained_models/Dataset122_ISIC2017/nnUNetTrainer__nnUNetPlans__2d/808641_FusedMBConv_8/fold_0

#######################################################################
Please cite the following paper when using nnU-Net:
Isensee, F., Jaeger, P. F., Kohl, S. A., Petersen, J., & Maier-Hein, K. H. (2021). nnU-Net: a self-configuring method for deep learning-based biomedical image segmentation. Nature methods, 18(2), 203-211.
#######################################################################

model: UNet(
  (inc): inconv(
    (conv1): Conv2d(3, 8, kernel_size=(3, 3), stride=(1, 1), padding=(1, 1), bias=False)
    (conv2): FusedMBConv(
      (conv3x3): ConvNormAct(
        (conv): Conv2d(8, 32, kernel_size=(3, 3), stride=(1, 1), padding=(1, 1), bias=False)
        (norm): BatchNorm2d(8, eps=1e-05, momentum=0.1, affine=True, track_running_stats=True)
        (act): ReLU()
      )
      (se_block): SEBlock(
        (squeeze): AdaptiveAvgPool2d(output_size=1)
        (excitation): Sequential(
          (0): Conv2d(32, 8, kernel_size=(1, 1), stride=(1, 1))
          (1): ReLU()
          (2): Conv2d(8, 32, kernel_size=(1, 1), stride=(1, 1))
          (3): Sigmoid()
        )
      )
      (pointwise): ConvNormAct(
        (conv): Conv2d(32, 8, kernel_size=(1, 1), stride=(1, 1), bias=False)
        (norm): BatchNorm2d(32, eps=1e-05, momentum=0.1, affine=True, track_running_stats=True)
        (act): Identity()
      )
      (drop_path): DropPath()
      (shortcut): Sequential()
    )
  )
  (down1): down_block(
    (conv): Sequential(
      (0): MaxPool2d(kernel_size=2, stride=2, padding=0, dilation=1, ceil_mode=False)
      (1): FusedMBConv(
        (conv3x3): ConvNormAct(
          (conv): Conv2d(8, 32, kernel_size=(3, 3), stride=(1, 1), padding=(1, 1), bias=False)
          (norm): BatchNorm2d(8, eps=1e-05, momentum=0.1, affine=True, track_running_stats=True)
          (act): ReLU()
        )
        (se_block): SEBlock(
          (squeeze): AdaptiveAvgPool2d(output_size=1)
          (excitation): Sequential(
            (0): Conv2d(32, 8, kernel_size=(1, 1), stride=(1, 1))
            (1): ReLU()
            (2): Conv2d(8, 32, kernel_size=(1, 1), stride=(1, 1))
            (3): Sigmoid()
          )
        )
        (pointwise): ConvNormAct(
          (conv): Conv2d(32, 16, kernel_size=(1, 1), stride=(1, 1), bias=False)
          (norm): BatchNorm2d(32, eps=1e-05, momentum=0.1, affine=True, track_running_stats=True)
          (act): Identity()
        )
        (drop_path): DropPath()
        (shortcut): Sequential(
          (0): ConvNormAct(
            (conv): Conv2d(8, 16, kernel_size=(3, 3), stride=(1, 1), padding=(1, 1), bias=False)
            (norm): Identity()
            (act): Identity()
          )
        )
      )
      (2): FusedMBConv(
        (conv3x3): ConvNormAct(
          (conv): Conv2d(16, 64, kernel_size=(3, 3), stride=(1, 1), padding=(1, 1), bias=False)
          (norm): BatchNorm2d(16, eps=1e-05, momentum=0.1, affine=True, track_running_stats=True)
          (act): ReLU()
        )
        (se_block): SEBlock(
          (squeeze): AdaptiveAvgPool2d(output_size=1)
          (excitation): Sequential(
            (0): Conv2d(64, 16, kernel_size=(1, 1), stride=(1, 1))
            (1): ReLU()
            (2): Conv2d(16, 64, kernel_size=(1, 1), stride=(1, 1))
            (3): Sigmoid()
          )
        )
        (pointwise): ConvNormAct(
          (conv): Conv2d(64, 16, kernel_size=(1, 1), stride=(1, 1), bias=False)
          (norm): BatchNorm2d(64, eps=1e-05, momentum=0.1, affine=True, track_running_stats=True)
          (act): Identity()
        )
        (drop_path): DropPath()
        (shortcut): Sequential()
      )
    )
  )
  (down2): down_block(
    (conv): Sequential(
      (0): MaxPool2d(kernel_size=2, stride=2, padding=0, dilation=1, ceil_mode=False)
      (1): FusedMBConv(
        (conv3x3): ConvNormAct(
          (conv): Conv2d(16, 64, kernel_size=(3, 3), stride=(1, 1), padding=(1, 1), bias=False)
          (norm): BatchNorm2d(16, eps=1e-05, momentum=0.1, affine=True, track_running_stats=True)
          (act): ReLU()
        )
        (se_block): SEBlock(
          (squeeze): AdaptiveAvgPool2d(output_size=1)
          (excitation): Sequential(
            (0): Conv2d(64, 16, kernel_size=(1, 1), stride=(1, 1))
            (1): ReLU()
            (2): Conv2d(16, 64, kernel_size=(1, 1), stride=(1, 1))
            (3): Sigmoid()
          )
        )
        (pointwise): ConvNormAct(
          (conv): Conv2d(64, 32, kernel_size=(1, 1), stride=(1, 1), bias=False)
          (norm): BatchNorm2d(64, eps=1e-05, momentum=0.1, affine=True, track_running_stats=True)
          (act): Identity()
        )
        (drop_path): DropPath()
        (shortcut): Sequential(
          (0): ConvNormAct(
            (conv): Conv2d(16, 32, kernel_size=(3, 3), stride=(1, 1), padding=(1, 1), bias=False)
            (norm): Identity()
            (act): Identity()
          )
        )
      )
      (2): FusedMBConv(
        (conv3x3): ConvNormAct(
          (conv): Conv2d(32, 128, kernel_size=(3, 3), stride=(1, 1), padding=(1, 1), bias=False)
          (norm): BatchNorm2d(32, eps=1e-05, momentum=0.1, affine=True, track_running_stats=True)
          (act): ReLU()
        )
        (se_block): SEBlock(
          (squeeze): AdaptiveAvgPool2d(output_size=1)
          (excitation): Sequential(
            (0): Conv2d(128, 32, kernel_size=(1, 1), stride=(1, 1))
            (1): ReLU()
            (2): Conv2d(32, 128, kernel_size=(1, 1), stride=(1, 1))
            (3): Sigmoid()
          )
        )
        (pointwise): ConvNormAct(
          (conv): Conv2d(128, 32, kernel_size=(1, 1), stride=(1, 1), bias=False)
          (norm): BatchNorm2d(128, eps=1e-05, momentum=0.1, affine=True, track_running_stats=True)
          (act): Identity()
        )
        (drop_path): DropPath()
        (shortcut): Sequential()
      )
    )
  )
  (down3): down_block(
    (conv): Sequential(
      (0): MaxPool2d(kernel_size=2, stride=2, padding=0, dilation=1, ceil_mode=False)
      (1): FusedMBConv(
        (conv3x3): ConvNormAct(
          (conv): Conv2d(32, 128, kernel_size=(3, 3), stride=(1, 1), padding=(1, 1), bias=False)
          (norm): BatchNorm2d(32, eps=1e-05, momentum=0.1, affine=True, track_running_stats=True)
          (act): ReLU()
        )
        (se_block): SEBlock(
          (squeeze): AdaptiveAvgPool2d(output_size=1)
          (excitation): Sequential(
            (0): Conv2d(128, 32, kernel_size=(1, 1), stride=(1, 1))
            (1): ReLU()
            (2): Conv2d(32, 128, kernel_size=(1, 1), stride=(1, 1))
            (3): Sigmoid()
          )
        )
        (pointwise): ConvNormAct(
          (conv): Conv2d(128, 64, kernel_size=(1, 1), stride=(1, 1), bias=False)
          (norm): BatchNorm2d(128, eps=1e-05, momentum=0.1, affine=True, track_running_stats=True)
          (act): Identity()
        )
        (drop_path): DropPath()
        (shortcut): Sequential(
          (0): ConvNormAct(
            (conv): Conv2d(32, 64, kernel_size=(3, 3), stride=(1, 1), padding=(1, 1), bias=False)
            (norm): Identity()
            (act): Identity()
          )
        )
      )
      (2): FusedMBConv(
        (conv3x3): ConvNormAct(
          (conv): Conv2d(64, 256, kernel_size=(3, 3), stride=(1, 1), padding=(1, 1), bias=False)
          (norm): BatchNorm2d(64, eps=1e-05, momentum=0.1, affine=True, track_running_stats=True)
          (act): ReLU()
        )
        (se_block): SEBlock(
          (squeeze): AdaptiveAvgPool2d(output_size=1)
          (excitation): Sequential(
            (0): Conv2d(256, 64, kernel_size=(1, 1), stride=(1, 1))
            (1): ReLU()
            (2): Conv2d(64, 256, kernel_size=(1, 1), stride=(1, 1))
            (3): Sigmoid()
          )
        )
        (pointwise): ConvNormAct(
          (conv): Conv2d(256, 64, kernel_size=(1, 1), stride=(1, 1), bias=False)
          (norm): BatchNorm2d(256, eps=1e-05, momentum=0.1, affine=True, track_running_stats=True)
          (act): Identity()
        )
        (drop_path): DropPath()
        (shortcut): Sequential()
      )
    )
  )
  (down4): down_block(
    (conv): Sequential(
      (0): MaxPool2d(kernel_size=2, stride=2, padding=0, dilation=1, ceil_mode=False)
      (1): FusedMBConv(
        (conv3x3): ConvNormAct(
          (conv): Conv2d(64, 256, kernel_size=(3, 3), stride=(1, 1), padding=(1, 1), bias=False)
          (norm): BatchNorm2d(64, eps=1e-05, momentum=0.1, affine=True, track_running_stats=True)
          (act): ReLU()
        )
        (se_block): SEBlock(
          (squeeze): AdaptiveAvgPool2d(output_size=1)
          (excitation): Sequential(
            (0): Conv2d(256, 64, kernel_size=(1, 1), stride=(1, 1))
            (1): ReLU()
            (2): Conv2d(64, 256, kernel_size=(1, 1), stride=(1, 1))
            (3): Sigmoid()
          )
        )
        (pointwise): ConvNormAct(
          (conv): Conv2d(256, 128, kernel_size=(1, 1), stride=(1, 1), bias=False)
          (norm): BatchNorm2d(256, eps=1e-05, momentum=0.1, affine=True, track_running_stats=True)
          (act): Identity()
        )
        (drop_path): DropPath()
        (shortcut): Sequential(
          (0): ConvNormAct(
            (conv): Conv2d(64, 128, kernel_size=(3, 3), stride=(1, 1), padding=(1, 1), bias=False)
            (norm): Identity()
            (act): Identity()
          )
        )
      )
      (2): FusedMBConv(
        (conv3x3): ConvNormAct(
          (conv): Conv2d(128, 512, kernel_size=(3, 3), stride=(1, 1), padding=(1, 1), bias=False)
          (norm): BatchNorm2d(128, eps=1e-05, momentum=0.1, affine=True, track_running_stats=True)
          (act): ReLU()
        )
        (se_block): SEBlock(
          (squeeze): AdaptiveAvgPool2d(output_size=1)
          (excitation): Sequential(
            (0): Conv2d(512, 128, kernel_size=(1, 1), stride=(1, 1))
            (1): ReLU()
            (2): Conv2d(128, 512, kernel_size=(1, 1), stride=(1, 1))
            (3): Sigmoid()
          )
        )
        (pointwise): ConvNormAct(
          (conv): Conv2d(512, 128, kernel_size=(1, 1), stride=(1, 1), bias=False)
          (norm): BatchNorm2d(512, eps=1e-05, momentum=0.1, affine=True, track_running_stats=True)
          (act): Identity()
        )
        (drop_path): DropPath()
        (shortcut): Sequential()
      )
    )
  )
  (down5): down_block(
    (conv): Sequential(
      (0): MaxPool2d(kernel_size=2, stride=2, padding=0, dilation=1, ceil_mode=False)
      (1): FusedMBConv(
        (conv3x3): ConvNormAct(
          (conv): Conv2d(128, 512, kernel_size=(3, 3), stride=(1, 1), padding=(1, 1), bias=False)
          (norm): BatchNorm2d(128, eps=1e-05, momentum=0.1, affine=True, track_running_stats=True)
          (act): ReLU()
        )
        (se_block): SEBlock(
          (squeeze): AdaptiveAvgPool2d(output_size=1)
          (excitation): Sequential(
            (0): Conv2d(512, 128, kernel_size=(1, 1), stride=(1, 1))
            (1): ReLU()
            (2): Conv2d(128, 512, kernel_size=(1, 1), stride=(1, 1))
            (3): Sigmoid()
          )
        )
        (pointwise): ConvNormAct(
          (conv): Conv2d(512, 256, kernel_size=(1, 1), stride=(1, 1), bias=False)
          (norm): BatchNorm2d(512, eps=1e-05, momentum=0.1, affine=True, track_running_stats=True)
          (act): Identity()
        )
        (drop_path): DropPath()
        (shortcut): Sequential(
          (0): ConvNormAct(
            (conv): Conv2d(128, 256, kernel_size=(3, 3), stride=(1, 1), padding=(1, 1), bias=False)
            (norm): Identity()
            (act): Identity()
          )
        )
      )
      (2): FusedMBConv(
        (conv3x3): ConvNormAct(
          (conv): Conv2d(256, 1024, kernel_size=(3, 3), stride=(1, 1), padding=(1, 1), bias=False)
          (norm): BatchNorm2d(256, eps=1e-05, momentum=0.1, affine=True, track_running_stats=True)
          (act): ReLU()
        )
        (se_block): SEBlock(
          (squeeze): AdaptiveAvgPool2d(output_size=1)
          (excitation): Sequential(
            (0): Conv2d(1024, 256, kernel_size=(1, 1), stride=(1, 1))
            (1): ReLU()
            (2): Conv2d(256, 1024, kernel_size=(1, 1), stride=(1, 1))
            (3): Sigmoid()
          )
        )
        (pointwise): ConvNormAct(
          (conv): Conv2d(1024, 256, kernel_size=(1, 1), stride=(1, 1), bias=False)
          (norm): BatchNorm2d(1024, eps=1e-05, momentum=0.1, affine=True, track_running_stats=True)
          (act): Identity()
        )
        (drop_path): DropPath()
        (shortcut): Sequential()
      )
    )
  )
  (down6): down_block(
    (conv): Sequential(
      (0): MaxPool2d(kernel_size=2, stride=2, padding=0, dilation=1, ceil_mode=False)
      (1): FusedMBConv(
        (conv3x3): ConvNormAct(
          (conv): Conv2d(256, 1024, kernel_size=(3, 3), stride=(1, 1), padding=(1, 1), bias=False)
          (norm): BatchNorm2d(256, eps=1e-05, momentum=0.1, affine=True, track_running_stats=True)
          (act): ReLU()
        )
        (se_block): SEBlock(
          (squeeze): AdaptiveAvgPool2d(output_size=1)
          (excitation): Sequential(
            (0): Conv2d(1024, 256, kernel_size=(1, 1), stride=(1, 1))
            (1): ReLU()
            (2): Conv2d(256, 1024, kernel_size=(1, 1), stride=(1, 1))
            (3): Sigmoid()
          )
        )
        (pointwise): ConvNormAct(
          (conv): Conv2d(1024, 256, kernel_size=(1, 1), stride=(1, 1), bias=False)
          (norm): BatchNorm2d(1024, eps=1e-05, momentum=0.1, affine=True, track_running_stats=True)
          (act): Identity()
        )
        (drop_path): DropPath()
        (shortcut): Sequential()
      )
      (2): FusedMBConv(
        (conv3x3): ConvNormAct(
          (conv): Conv2d(256, 1024, kernel_size=(3, 3), stride=(1, 1), padding=(1, 1), bias=False)
          (norm): BatchNorm2d(256, eps=1e-05, momentum=0.1, affine=True, track_running_stats=True)
          (act): ReLU()
        )
        (se_block): SEBlock(
          (squeeze): AdaptiveAvgPool2d(output_size=1)
          (excitation): Sequential(
            (0): Conv2d(1024, 256, kernel_size=(1, 1), stride=(1, 1))
            (1): ReLU()
            (2): Conv2d(256, 1024, kernel_size=(1, 1), stride=(1, 1))
            (3): Sigmoid()
          )
        )
        (pointwise): ConvNormAct(
          (conv): Conv2d(1024, 256, kernel_size=(1, 1), stride=(1, 1), bias=False)
          (norm): BatchNorm2d(1024, eps=1e-05, momentum=0.1, affine=True, track_running_stats=True)
          (act): Identity()
        )
        (drop_path): DropPath()
        (shortcut): Sequential()
      )
    )
  )
  (up0_0): up_block(
    (conv_ch): Conv2d(256, 256, kernel_size=(1, 1), stride=(1, 1))
    (conv): Sequential(
      (0): FusedMBConv(
        (conv3x3): ConvNormAct(
          (conv): Conv2d(512, 2048, kernel_size=(3, 3), stride=(1, 1), padding=(1, 1), bias=False)
          (norm): BatchNorm2d(512, eps=1e-05, momentum=0.1, affine=True, track_running_stats=True)
          (act): ReLU()
        )
        (se_block): SEBlock(
          (squeeze): AdaptiveAvgPool2d(output_size=1)
          (excitation): Sequential(
            (0): Conv2d(2048, 512, kernel_size=(1, 1), stride=(1, 1))
            (1): ReLU()
            (2): Conv2d(512, 2048, kernel_size=(1, 1), stride=(1, 1))
            (3): Sigmoid()
          )
        )
        (pointwise): ConvNormAct(
          (conv): Conv2d(2048, 256, kernel_size=(1, 1), stride=(1, 1), bias=False)
          (norm): BatchNorm2d(2048, eps=1e-05, momentum=0.1, affine=True, track_running_stats=True)
          (act): Identity()
        )
        (drop_path): DropPath()
        (shortcut): Sequential(
          (0): ConvNormAct(
            (conv): Conv2d(512, 256, kernel_size=(3, 3), stride=(1, 1), padding=(1, 1), bias=False)
            (norm): Identity()
            (act): Identity()
          )
        )
      )
      (1): FusedMBConv(
        (conv3x3): ConvNormAct(
          (conv): Conv2d(256, 1024, kernel_size=(3, 3), stride=(1, 1), padding=(1, 1), bias=False)
          (norm): BatchNorm2d(256, eps=1e-05, momentum=0.1, affine=True, track_running_stats=True)
          (act): ReLU()
        )
        (se_block): SEBlock(
          (squeeze): AdaptiveAvgPool2d(output_size=1)
          (excitation): Sequential(
            (0): Conv2d(1024, 256, kernel_size=(1, 1), stride=(1, 1))
            (1): ReLU()
            (2): Conv2d(256, 1024, kernel_size=(1, 1), stride=(1, 1))
            (3): Sigmoid()
          )
        )
        (pointwise): ConvNormAct(
          (conv): Conv2d(1024, 256, kernel_size=(1, 1), stride=(1, 1), bias=False)
          (norm): BatchNorm2d(1024, eps=1e-05, momentum=0.1, affine=True, track_running_stats=True)
          (act): Identity()
        )
        (drop_path): DropPath()
        (shortcut): Sequential()
      )
    )
  )
  (up0): up_block(
    (conv_ch): Conv2d(256, 128, kernel_size=(1, 1), stride=(1, 1))
    (conv): Sequential(
      (0): FusedMBConv(
        (conv3x3): ConvNormAct(
          (conv): Conv2d(256, 1024, kernel_size=(3, 3), stride=(1, 1), padding=(1, 1), bias=False)
          (norm): BatchNorm2d(256, eps=1e-05, momentum=0.1, affine=True, track_running_stats=True)
          (act): ReLU()
        )
        (se_block): SEBlock(
          (squeeze): AdaptiveAvgPool2d(output_size=1)
          (excitation): Sequential(
            (0): Conv2d(1024, 256, kernel_size=(1, 1), stride=(1, 1))
            (1): ReLU()
            (2): Conv2d(256, 1024, kernel_size=(1, 1), stride=(1, 1))
            (3): Sigmoid()
          )
        )
        (pointwise): ConvNormAct(
          (conv): Conv2d(1024, 128, kernel_size=(1, 1), stride=(1, 1), bias=False)
          (norm): BatchNorm2d(1024, eps=1e-05, momentum=0.1, affine=True, track_running_stats=True)
          (act): Identity()
        )
        (drop_path): DropPath()
        (shortcut): Sequential(
          (0): ConvNormAct(
            (conv): Conv2d(256, 128, kernel_size=(3, 3), stride=(1, 1), padding=(1, 1), bias=False)
            (norm): Identity()
            (act): Identity()
          )
        )
      )
      (1): FusedMBConv(
        (conv3x3): ConvNormAct(
          (conv): Conv2d(128, 512, kernel_size=(3, 3), stride=(1, 1), padding=(1, 1), bias=False)
          (norm): BatchNorm2d(128, eps=1e-05, momentum=0.1, affine=True, track_running_stats=True)
          (act): ReLU()
        )
        (se_block): SEBlock(
          (squeeze): AdaptiveAvgPool2d(output_size=1)
          (excitation): Sequential(
            (0): Conv2d(512, 128, kernel_size=(1, 1), stride=(1, 1))
            (1): ReLU()
            (2): Conv2d(128, 512, kernel_size=(1, 1), stride=(1, 1))
            (3): Sigmoid()
          )
        )
        (pointwise): ConvNormAct(
          (conv): Conv2d(512, 128, kernel_size=(1, 1), stride=(1, 1), bias=False)
          (norm): BatchNorm2d(512, eps=1e-05, momentum=0.1, affine=True, track_running_stats=True)
          (act): Identity()
        )
        (drop_path): DropPath()
        (shortcut): Sequential()
      )
    )
  )
  (up1): up_block(
    (conv_ch): Conv2d(128, 64, kernel_size=(1, 1), stride=(1, 1))
    (conv): Sequential(
      (0): FusedMBConv(
        (conv3x3): ConvNormAct(
          (conv): Conv2d(128, 512, kernel_size=(3, 3), stride=(1, 1), padding=(1, 1), bias=False)
          (norm): BatchNorm2d(128, eps=1e-05, momentum=0.1, affine=True, track_running_stats=True)
          (act): ReLU()
        )
        (se_block): SEBlock(
          (squeeze): AdaptiveAvgPool2d(output_size=1)
          (excitation): Sequential(
            (0): Conv2d(512, 128, kernel_size=(1, 1), stride=(1, 1))
            (1): ReLU()
            (2): Conv2d(128, 512, kernel_size=(1, 1), stride=(1, 1))
            (3): Sigmoid()
          )
        )
        (pointwise): ConvNormAct(
          (conv): Conv2d(512, 64, kernel_size=(1, 1), stride=(1, 1), bias=False)
          (norm): BatchNorm2d(512, eps=1e-05, momentum=0.1, affine=True, track_running_stats=True)
          (act): Identity()
        )
        (drop_path): DropPath()
        (shortcut): Sequential(
          (0): ConvNormAct(
            (conv): Conv2d(128, 64, kernel_size=(3, 3), stride=(1, 1), padding=(1, 1), bias=False)
            (norm): Identity()
            (act): Identity()
          )
        )
      )
      (1): FusedMBConv(
        (conv3x3): ConvNormAct(
          (conv): Conv2d(64, 256, kernel_size=(3, 3), stride=(1, 1), padding=(1, 1), bias=False)
          (norm): BatchNorm2d(64, eps=1e-05, momentum=0.1, affine=True, track_running_stats=True)
          (act): ReLU()
        )
        (se_block): SEBlock(
          (squeeze): AdaptiveAvgPool2d(output_size=1)
          (excitation): Sequential(
            (0): Conv2d(256, 64, kernel_size=(1, 1), stride=(1, 1))
            (1): ReLU()
            (2): Conv2d(64, 256, kernel_size=(1, 1), stride=(1, 1))
            (3): Sigmoid()
          )
        )
        (pointwise): ConvNormAct(
          (conv): Conv2d(256, 64, kernel_size=(1, 1), stride=(1, 1), bias=False)
          (norm): BatchNorm2d(256, eps=1e-05, momentum=0.1, affine=True, track_running_stats=True)
          (act): Identity()
        )
        (drop_path): DropPath()
        (shortcut): Sequential()
      )
    )
  )
  (up2): up_block(
    (conv_ch): Conv2d(64, 32, kernel_size=(1, 1), stride=(1, 1))
    (conv): Sequential(
      (0): FusedMBConv(
        (conv3x3): ConvNormAct(
          (conv): Conv2d(64, 256, kernel_size=(3, 3), stride=(1, 1), padding=(1, 1), bias=False)
          (norm): BatchNorm2d(64, eps=1e-05, momentum=0.1, affine=True, track_running_stats=True)
          (act): ReLU()
        )
        (se_block): SEBlock(
          (squeeze): AdaptiveAvgPool2d(output_size=1)
          (excitation): Sequential(
            (0): Conv2d(256, 64, kernel_size=(1, 1), stride=(1, 1))
            (1): ReLU()
            (2): Conv2d(64, 256, kernel_size=(1, 1), stride=(1, 1))
            (3): Sigmoid()
          )
        )
        (pointwise): ConvNormAct(
          (conv): Conv2d(256, 32, kernel_size=(1, 1), stride=(1, 1), bias=False)
          (norm): BatchNorm2d(256, eps=1e-05, momentum=0.1, affine=True, track_running_stats=True)
          (act): Identity()
        )
        (drop_path): DropPath()
        (shortcut): Sequential(
          (0): ConvNormAct(
            (conv): Conv2d(64, 32, kernel_size=(3, 3), stride=(1, 1), padding=(1, 1), bias=False)
            (norm): Identity()
            (act): Identity()
          )
        )
      )
      (1): FusedMBConv(
        (conv3x3): ConvNormAct(
          (conv): Conv2d(32, 128, kernel_size=(3, 3), stride=(1, 1), padding=(1, 1), bias=False)
          (norm): BatchNorm2d(32, eps=1e-05, momentum=0.1, affine=True, track_running_stats=True)
          (act): ReLU()
        )
        (se_block): SEBlock(
          (squeeze): AdaptiveAvgPool2d(output_size=1)
          (excitation): Sequential(
            (0): Conv2d(128, 32, kernel_size=(1, 1), stride=(1, 1))
            (1): ReLU()
            (2): Conv2d(32, 128, kernel_size=(1, 1), stride=(1, 1))
            (3): Sigmoid()
          )
        )
        (pointwise): ConvNormAct(
          (conv): Conv2d(128, 32, kernel_size=(1, 1), stride=(1, 1), bias=False)
          (norm): BatchNorm2d(128, eps=1e-05, momentum=0.1, affine=True, track_running_stats=True)
          (act): Identity()
        )
        (drop_path): DropPath()
        (shortcut): Sequential()
      )
    )
  )
  (up3): up_block(
    (conv_ch): Conv2d(32, 16, kernel_size=(1, 1), stride=(1, 1))
    (conv): Sequential(
      (0): FusedMBConv(
        (conv3x3): ConvNormAct(
          (conv): Conv2d(32, 128, kernel_size=(3, 3), stride=(1, 1), padding=(1, 1), bias=False)
          (norm): BatchNorm2d(32, eps=1e-05, momentum=0.1, affine=True, track_running_stats=True)
          (act): ReLU()
        )
        (se_block): SEBlock(
          (squeeze): AdaptiveAvgPool2d(output_size=1)
          (excitation): Sequential(
            (0): Conv2d(128, 32, kernel_size=(1, 1), stride=(1, 1))
            (1): ReLU()
            (2): Conv2d(32, 128, kernel_size=(1, 1), stride=(1, 1))
            (3): Sigmoid()
          )
        )
        (pointwise): ConvNormAct(
          (conv): Conv2d(128, 16, kernel_size=(1, 1), stride=(1, 1), bias=False)
          (norm): BatchNorm2d(128, eps=1e-05, momentum=0.1, affine=True, track_running_stats=True)
          (act): Identity()
        )
        (drop_path): DropPath()
        (shortcut): Sequential(
          (0): ConvNormAct(
            (conv): Conv2d(32, 16, kernel_size=(3, 3), stride=(1, 1), padding=(1, 1), bias=False)
            (norm): Identity()
            (act): Identity()
          )
        )
      )
      (1): FusedMBConv(
        (conv3x3): ConvNormAct(
          (conv): Conv2d(16, 64, kernel_size=(3, 3), stride=(1, 1), padding=(1, 1), bias=False)
          (norm): BatchNorm2d(16, eps=1e-05, momentum=0.1, affine=True, track_running_stats=True)
          (act): ReLU()
        )
        (se_block): SEBlock(
          (squeeze): AdaptiveAvgPool2d(output_size=1)
          (excitation): Sequential(
            (0): Conv2d(64, 16, kernel_size=(1, 1), stride=(1, 1))
            (1): ReLU()
            (2): Conv2d(16, 64, kernel_size=(1, 1), stride=(1, 1))
            (3): Sigmoid()
          )
        )
        (pointwise): ConvNormAct(
          (conv): Conv2d(64, 16, kernel_size=(1, 1), stride=(1, 1), bias=False)
          (norm): BatchNorm2d(64, eps=1e-05, momentum=0.1, affine=True, track_running_stats=True)
          (act): Identity()
        )
        (drop_path): DropPath()
        (shortcut): Sequential()
      )
    )
  )
  (up4): up_block(
    (conv_ch): Conv2d(16, 8, kernel_size=(1, 1), stride=(1, 1))
    (conv): Sequential(
      (0): FusedMBConv(
        (conv3x3): ConvNormAct(
          (conv): Conv2d(16, 64, kernel_size=(3, 3), stride=(1, 1), padding=(1, 1), bias=False)
          (norm): BatchNorm2d(16, eps=1e-05, momentum=0.1, affine=True, track_running_stats=True)
          (act): ReLU()
        )
        (se_block): SEBlock(
          (squeeze): AdaptiveAvgPool2d(output_size=1)
          (excitation): Sequential(
            (0): Conv2d(64, 16, kernel_size=(1, 1), stride=(1, 1))
            (1): ReLU()
            (2): Conv2d(16, 64, kernel_size=(1, 1), stride=(1, 1))
            (3): Sigmoid()
          )
        )
        (pointwise): ConvNormAct(
          (conv): Conv2d(64, 8, kernel_size=(1, 1), stride=(1, 1), bias=False)
          (norm): BatchNorm2d(64, eps=1e-05, momentum=0.1, affine=True, track_running_stats=True)
          (act): Identity()
        )
        (drop_path): DropPath()
        (shortcut): Sequential(
          (0): ConvNormAct(
            (conv): Conv2d(16, 8, kernel_size=(3, 3), stride=(1, 1), padding=(1, 1), bias=False)
            (norm): Identity()
            (act): Identity()
          )
        )
      )
      (1): FusedMBConv(
        (conv3x3): ConvNormAct(
          (conv): Conv2d(8, 32, kernel_size=(3, 3), stride=(1, 1), padding=(1, 1), bias=False)
          (norm): BatchNorm2d(8, eps=1e-05, momentum=0.1, affine=True, track_running_stats=True)
          (act): ReLU()
        )
        (se_block): SEBlock(
          (squeeze): AdaptiveAvgPool2d(output_size=1)
          (excitation): Sequential(
            (0): Conv2d(32, 8, kernel_size=(1, 1), stride=(1, 1))
            (1): ReLU()
            (2): Conv2d(8, 32, kernel_size=(1, 1), stride=(1, 1))
            (3): Sigmoid()
          )
        )
        (pointwise): ConvNormAct(
          (conv): Conv2d(32, 8, kernel_size=(1, 1), stride=(1, 1), bias=False)
          (norm): BatchNorm2d(32, eps=1e-05, momentum=0.1, affine=True, track_running_stats=True)
          (act): Identity()
        )
        (drop_path): DropPath()
        (shortcut): Sequential()
      )
    )
  )
  (outc): Conv2d(8, 2, kernel_size=(1, 1), stride=(1, 1))
  (seg_layers): ModuleList(
    (0): Conv2d(256, 2, kernel_size=(1, 1), stride=(1, 1))
    (1): Conv2d(128, 2, kernel_size=(1, 1), stride=(1, 1))
    (2): Conv2d(64, 2, kernel_size=(1, 1), stride=(1, 1))
    (3): Conv2d(32, 2, kernel_size=(1, 1), stride=(1, 1))
    (4): Conv2d(16, 2, kernel_size=(1, 1), stride=(1, 1))
    (5): Conv2d(8, 2, kernel_size=(1, 1), stride=(1, 1))
  )
)
================================================UNet================================================

This is the configuration used by this training:
Configuration name: 2d
 {'data_identifier': 'nnUNetPlans_2d', 'preprocessor_name': 'DefaultPreprocessor', 'batch_size': 49, 'patch_size': [256, 256], 'median_image_size_in_voxels': [256.0, 256.0], 'spac
…
